model

resmlp_models(
  (patch_embed): PatchEmbed(
    (proj): Conv2d(3, 384, kernel_size=(16, 16), stride=(16, 16))
  )
  (blocks): ModuleList(
    (0): layers_scale_mlp_blocks(
      (norm1): Affine()
      (attn): Linear(in_features=196, out_features=196, bias=True)
      (drop_path): Identity()
      (norm2): Affine()
      (mlp): Mlp(
        (fc1): Linear(in_features=384, out_features=1536, bias=True)
        (act): GELU()
        (fc2): Linear(in_features=1536, out_features=384, bias=True)
        (drop): Dropout(p=0.0, inplace=False)
      )
    )
    (1): layers_scale_mlp_blocks(
      (norm1): Affine()
      (attn): Linear(in_features=196, out_features=196, bias=True)
      (drop_path): Identity()
      (norm2): Affine()
      (mlp): Mlp(
        (fc1): Linear(in_features=384, out_features=1536, bias=True)
        (act): GELU()
        (fc2): Linear(in_features=1536, out_features=384, bias=True)
        (drop): Dropout(p=0.0, inplace=False)
      )
    )
    (2): layers_scale_mlp_blocks(
      (norm1): Affine()
      (attn): Linear(in_features=196, out_features=196, bias=True)
      (drop_path): Identity()
      (norm2): Affine()
      (mlp): Mlp(
        (fc1): Linear(in_features=384, out_features=1536, bias=True)
        (act): GELU()
        (fc2): Linear(in_features=1536, out_features=384, bias=True)
        (drop): Dropout(p=0.0, inplace=False)
      )
    )
    (3): layers_scale_mlp_blocks(
      (norm1): Affine()
      (attn): Linear(in_features=196, out_features=196, bias=True)
      (drop_path): Identity()
      (norm2): Affine()
      (mlp): Mlp(
        (fc1): Linear(in_features=384, out_features=1536, bias=True)
        (act): GELU()
        (fc2): Linear(in_features=1536, out_features=384, bias=True)
        (drop): Dropout(p=0.0, inplace=False)
      )
    )
    (4): layers_scale_mlp_blocks(
      (norm1): Affine()
      (attn): Linear(in_features=196, out_features=196, bias=True)
      (drop_path): Identity()
      (norm2): Affine()
      (mlp): Mlp(
        (fc1): Linear(in_features=384, out_features=1536, bias=True)
        (act): GELU()
        (fc2): Linear(in_features=1536, out_features=384, bias=True)
        (drop): Dropout(p=0.0, inplace=False)
      )
    )
    (5): layers_scale_mlp_blocks(
      (norm1): Affine()
      (attn): Linear(in_features=196, out_features=196, bias=True)
      (drop_path): Identity()
      (norm2): Affine()
      (mlp): Mlp(
        (fc1): Linear(in_features=384, out_features=1536, bias=True)
        (act): GELU()
        (fc2): Linear(in_features=1536, out_features=384, bias=True)
        (drop): Dropout(p=0.0, inplace=False)
      )
    )
    (6): layers_scale_mlp_blocks(
      (norm1): Affine()
      (attn): Linear(in_features=196, out_features=196, bias=True)
      (drop_path): Identity()
      (norm2): Affine()
      (mlp): Mlp(
        (fc1): Linear(in_features=384, out_features=1536, bias=True)
        (act): GELU()
        (fc2): Linear(in_features=1536, out_features=384, bias=True)
        (drop): Dropout(p=0.0, inplace=False)
      )
    )
    (7): layers_scale_mlp_blocks(
      (norm1): Affine()
      (attn): Linear(in_features=196, out_features=196, bias=True)
      (drop_path): Identity()
      (norm2): Affine()
      (mlp): Mlp(
        (fc1): Linear(in_features=384, out_features=1536, bias=True)
        (act): GELU()
        (fc2): Linear(in_features=1536, out_features=384, bias=True)
        (drop): Dropout(p=0.0, inplace=False)
      )
    )
    (8): layers_scale_mlp_blocks(
      (norm1): Affine()
      (attn): Linear(in_features=196, out_features=196, bias=True)
      (drop_path): Identity()
      (norm2): Affine()
      (mlp): Mlp(
        (fc1): Linear(in_features=384, out_features=1536, bias=True)
        (act): GELU()
        (fc2): Linear(in_features=1536, out_features=384, bias=True)
        (drop): Dropout(p=0.0, inplace=False)
      )
    )
    (9): layers_scale_mlp_blocks(
      (norm1): Affine()
      (attn): Linear(in_features=196, out_features=196, bias=True)
      (drop_path): Identity()
      (norm2): Affine()
      (mlp): Mlp(
        (fc1): Linear(in_features=384, out_features=1536, bias=True)
        (act): GELU()
        (fc2): Linear(in_features=1536, out_features=384, bias=True)
        (drop): Dropout(p=0.0, inplace=False)
      )
    )
    (10): layers_scale_mlp_blocks(
      (norm1): Affine()
      (attn): Linear(in_features=196, out_features=196, bias=True)
      (drop_path): Identity()
      (norm2): Affine()
      (mlp): Mlp(
        (fc1): Linear(in_features=384, out_features=1536, bias=True)
        (act): GELU()
        (fc2): Linear(in_features=1536, out_features=384, bias=True)
        (drop): Dropout(p=0.0, inplace=False)
      )
    )
    (11): layers_scale_mlp_blocks(
      (norm1): Affine()
      (attn): Linear(in_features=196, out_features=196, bias=True)
      (drop_path): Identity()
      (norm2): Affine()
      (mlp): Mlp(
        (fc1): Linear(in_features=384, out_features=1536, bias=True)
        (act): GELU()
        (fc2): Linear(in_features=1536, out_features=384, bias=True)
        (drop): Dropout(p=0.0, inplace=False)
      )
    )
  )
  (norm): Affine()
  (head): Linear(in_features=384, out_features=1000, bias=True)
)